Using cuda device
CNNv2(
  (conv_block_1): Sequential(
    (0): Conv2d(3, 102, kernel_size=(3, 3), stride=(1, 1), padding=(1, 1))
    (1): BatchNorm2d(102, eps=1e-05, momentum=0.1, affine=True, track_running_stats=True)
    (2): ReLU()
    (3): Conv2d(102, 102, kernel_size=(3, 3), stride=(1, 1), padding=(1, 1))
    (4): BatchNorm2d(102, eps=1e-05, momentum=0.1, affine=True, track_running_stats=True)
    (5): ReLU()
    (6): MaxPool2d(kernel_size=2, stride=2, padding=0, dilation=1, ceil_mode=False)
  )
  (conv_block_2): Sequential(
    (0): Conv2d(102, 102, kernel_size=(3, 3), stride=(1, 1), padding=(1, 1))
    (1): BatchNorm2d(102, eps=1e-05, momentum=0.1, affine=True, track_running_stats=True)
    (2): ReLU()
    (3): Conv2d(102, 102, kernel_size=(3, 3), stride=(1, 1), padding=(1, 1))
    (4): BatchNorm2d(102, eps=1e-05, momentum=0.1, affine=True, track_running_stats=True)
    (5): ReLU()
    (6): MaxPool2d(kernel_size=2, stride=2, padding=0, dilation=1, ceil_mode=False)
  )
  (classifier): Sequential(
    (0): Flatten(start_dim=1, end_dim=-1)
    (1): Linear(in_features=417792, out_features=1024, bias=True)
    (2): ReLU()
    (3): Linear(in_features=1024, out_features=512, bias=True)
    (4): ReLU()
    (5): Linear(in_features=512, out_features=102, bias=True)
  )
)
Epoch 1/100 -------------------------------
Train Error: 
Accuracy: 2.35%, Avg loss: 5.007044 

Validate Error: 
 Accuracy: 3.53%, Avg loss: 4.358016 

Epoch 2/100 -------------------------------
Train Error: 
Accuracy: 6.18%, Avg loss: 4.196200 

Validate Error: 
 Accuracy: 9.51%, Avg loss: 3.899484 

Epoch 3/100 -------------------------------
Train Error: 
…
